model/yolo-s_with_relu/yolo-s_with_relu.tflite (tflite, 143504 bytes, 25 tensors)

model/conv2d/Conv2D i1 [8, 3, 3, 1]
1 106 31 -124 -3 127 -66 -110
28 -72 -5 50 -127 41 92 -34
41 15 82 53 23 13 41 127
-45 -1 81 22 127 -19 -23 86
-58 -77 -37 -22 20 43 22 -24
5 -7 -5 -111 -127 47 -106 -22
1 -127 93 -21 -33 72 -78 -47
-10 -12 -46 -127 26 10 -62 36
63 90 49 -46 6 -35 -127 -39
00000000: 016a 1f84 fd7f be92 1cb8 fb32 8129 5cde
00000010: 290f 5235 170d 297f d3ff 5116 7fed e956
00000020: c6b3 dbea 142b 16e8 05f9 fb91 812f 96ea
00000030: 0181 5deb df48 b2d1 f6f4 d281 1a0a c224
00000040: 3f5a 31d2 06dd 81d9

model/conv2d_1/Conv2D i1 [8, 1, 1, 8]
-94 127 27 -25 -62 83 -17 -50
-66 127 -31 -22 -72 43 28 -46
-14 5 -127 -9 74 13 124 9
18 32 6 127 11 -20 9 -104
-90 -127 -34 -38 34 -50 90 -77
4 7 -127 -5 45 10 118 -2
-115 -24 -7 68 48 -51 8 127
13 -12 16 -127 -22 49 -10 112
00000000: a27f 1be7 c253 efce be7f e1ea b82b 1cd2
00000010: f205 81f7 4a0d 7c09 1220 067f 0bec 0998
00000020: a681 deda 22ce 5ab3 0407 81fb 2d0a 76fe
00000030: 8de8 f944 30cd 087f 0df4 1081 ea31 f670

model/conv2d_2/Conv2D i1 [4, 1, 1, 8]
94 102 26 -29 -52 85 127 -15
-16 -26 39 -21 8 -127 44 -22
89 101 -127 2 -78 -47 -51 8
2 -2 5 -127 -31 -6 32 -119
00000000: 5e66 1ae3 cc55 7ff1 f0e6 27eb 0881 2cea
00000010: 5965 8102 b2d1 cd08 02fe 0581 e1fa 2089

model/conv2d_3/Conv2D i1 [8, 3, 3, 4]
-6 27 0 -19 -46 -10 -23 15
40 -19 -50 -31 -6 -13 -31 -15
-49 -56 -53 33 127 -88 -108 -64
-9 -58 -43 9 -1 -45 -50 15
85 -4 -43 -53 -5 1 -3 7
-12 -17 2 -26 -16 -3 -20 51
-17 9 2 14 -24 -36 9 -93
-22 -56 -46 127 -17 13 7 18
-25 4 23 -81 -19 -10 -6 81
-9 12 -12 -9 -34 5 -17 -46
-14 31 -10 0 -22 -7 -26 13
-3 -38 -69 -127 -18 102 -4 -17
-26 -10 -8 23 21 -52 -63 -84
10 43 -21 -14 -18 18 -22 -25
-52 16 -39 5 -2 14 -37 -25
-32 26 -32 -32 -99 127 -22 5
6 44 -60 -48 -21 2 -23 -5
-53 90 -15 9 5 50 -28 -34
26 24 29 -6 -60 -20 60 40
52 29 20 -4 6 21 42 -9
-57 -50 92 46 127 41 74 13
-51 34 34 3 5 -32 36 6
99 23 47 22 -4 -25 -26 0
-8 -8 -61 4 -35 24 -3 -16
-33 57 21 -22 -19 -75 -115 82
-34 1 -42 -46 -46 127 65 -45
-53 44 -9 58 -8 2 -24 -29
2 -27 2 24 60 -8 -15 -4
47 12 -20 19 9 9 25 12
127 54 -20 -35 117 38 -75 12
14 46 32 -3 59 101 23 -26
62 56 -42 13 -11 -7 4 23
00000000: fa1b 00ed d2f6 e90f 28ed cee1 faf3 e1f1
00000010: cfc8 cb21 7fa8 94c0 f7c6 d509 ffd3 ce0f
00000020: 55fc d5cb fb01 fd07 f4ef 02e6 f0fd ec33
00000030: ef09 020e e8dc 09a3 eac8 d27f ef0d 0712
00000040: e704 17af edf6 fa51 f70c f4f7 de05 efd2
00000050: f21f f600 eaf9 e60d fdda bb81 ee66 fcef
00000060: e6f6 f817 15cc c1ac 0a2b ebf2 ee12 eae7
00000070: cc10 d905 fe0e dbe7 e01a e0e0 9d7f ea05
00000080: 062c c4d0 eb02 e9fb cb5a f109 0532 e4de
00000090: 1a18 1dfa c4ec 3c28 341d 14fc 0615 2af7
000000a0: c7ce 5c2e 7f29 4a0d cd22 2203 05e0 2406
000000b0: 6317 2f16 fce7 e600 f8f8 c304 dd18 fdf0
000000c0: df39 15ea edb5 8d52 de01 d6d2 d27f 41d3
000000d0: cb2c f73a f802 e8e3 02e5 0218 3cf8 f1fc
000000e0: 2f0c ec13 0909 190c 7f36 ecdd 7526 b50c
000000f0: 0e2e 20fd 3b65 17e6 3e38 d60d f5f9 0417

model/conv2d_4/Conv2D i1 [48, 1, 1, 8]
28 -77 21 48 19 -4 52 127
-18 127 -71 28 -10 88 6 -6
-32 -28 -127 -121 71 55 -1 -38
79 -53 122 -82 -49 127 -19 -68
69 76 19 120 125 36 -127 -15
-53 -29 -108 -126 127 -74 9 -53
-72 30 -32 -10 -19 15 -127 16
-28 35 9 13 10 -19 35 -127
8 -33 -28 -66 -14 24 -28 127
-60 113 -27 3 22 -11 12 -127
-103 127 -27 20 -22 0 3 -126
50 105 -127 115 -40 -65 8 9
15 -48 54 -39 -20 -10 9 127
52 -118 -127 40 9 50 -62 -64
-76 127 79 -26 -31 -59 28 -38
21 43 49 127 -63 28 -83 -15
0 -65 -14 -96 55 -89 127 -33
-8 -24 -58 47 -13 29 -4 -127
127 59 -50 -33 -49 15 1 0
42 76 -127 122 -27 -100 16 39
-70 -114 127 -72 4 -7 -28 -56
6 -48 1 -127 61 -75 88 59
-127 -37 17 105 68 19 85 84
-106 127 87 -49 11 2 35 -68
-79 -63 123 -105 -9 127 -96 -75
127 13 16 -96 -78 -13 -39 -67
68 -65 37 -29 18 -30 127 -37
-78 -26 -127 -96 104 -48 7 -26
127 13 -2 -100 -60 10 -34 -37
-59 94 -53 -18 -8 24 -30 -127
4 -57 4 29 -61 -9 127 -89
8 -25 10 101 -44 -127 -39 -14
00000000: 1cb3 1530 13fc 347f ee7f b91c f658 06fa
00000010: e0e4 8187 4737 ffda 4fcb 7aae cf7f edbc
00000020: 454c 1378 7d24 81f1 cbe3 9482 7fb6 09cb
00000030: b81e e0f6 ed0f 8110 e423 090d 0aed 2381
00000040: 08df e4be f218 e47f c471 e503 16f5 0c81
00000050: 997f e514 ea00 0382 3269 8173 d8bf 0809
00000060: 0fd0 36d9 ecf6 097f 348a 8128 0932 c2c0
00000070: b47f 4fe6 e1c5 1cda 152b 317f c11c adf1
00000080: 00bf f2a0 37a7 7fdf f8e8 c62f f31d fc81
00000090: 7f3b cedf cf0f 0100 2a4c 817a e59c 1027
000000a0: ba8e 7fb8 04f9 e4c8 06d0 0181 3db5 583b
000000b0: 81db 1169 4413 5554 967f 57cf 0b02 23bc
000000c0: b1c1 7b97 f77f a0b5 7f0d 10a0 b2f3 d9bd
000000d0: 44bf 25e3 12e2 7fdb b2e6 81a0 68d0 07e6
000000e0: 7f0d fe9c c40a dedb c55e cbee f818 e281
000000f0: 04c7 041d c3f7 7fa7 08e7 0a65 d481 d9f2

model/conv2d_5/Conv2D i1 [16, 1, 1, 48]
20 -9 16 80 50 2 -68 41
-11 40 39 66 -9 24 -37 -16
-30 -37 -50 -6 101 49 0 33
98 -25 52 40 -6 0 3 97
-69 66 -4 -76 48 3 -31 50
127 19 20 -31 -8 20 18 -46
-74 -9 -127 -47 1 -61 -32 6
-18 -18 -30 -31 68 -88 11 22
52 60 -39 -28 -33 100 31 -60
13 -15 -50 43 -22 -41 35 -73
56 19 31 46 -7 39 -3 -68
39 -16 -41 31 -114 34 -96 -68
42 58 -5 14 22 -20 28 -44
-3 21 32 47 -36 48 -40 13
-43 -7 47 127 14 40 22 6
43 -83 39 58 76 -56 -62 12
54 -1 84 34 35 7 64 -71
-84 40 53 -25 52 -66 66 -102
24 -33 -38 -24 40 -10 -43 29
69 -12 32 20 24 17 -55 -24
-19 67 -28 -18 50 18 -22 43
13 16 69 45 71 127 -69 22
18 33 26 -15 24 -10 -11 23
-32 43 -36 -8 11 6 -35 17
-20 102 -92 -69 -55 14 32 69
75 36 -22 22 -127 45 -26 -94
-7 23 57 50 -20 31 73 70
19 45 -14 -51 -41 112 58 -56
18 27 57 5 79 -51 28 -49
60 -23 -11 29 -14 12 -16 46
41 30 29 -28 -25 44 -69 17
44 127 13 -27 36 50 -56 36
00000000: 14f7 1050 3202 bc29 f528 2742 f718 dbf0
00000010: e2db cefa 6531 0021 62e7 3428 fa00 0361
00000020: bb42 fcb4 3003 e132 7f13 14e1 f814 12d2
00000030: b6f7 81d1 01c3 e006 eeee e2e1 44a8 0b16
00000040: 343c d9e4 df64 1fc4 0df1 ce2b ead7 23b7
00000050: 3813 1f2e f927 fdbc 27f0 d71f 8e22 a0bc
00000060: 2a3a fb0e 16ec 1cd4 fd15 202f dc30 d80d
00000070: d5f9 2f7f 0e28 1606 2bad 273a 4cc8 c20c
00000080: 36ff 5422 2307 40b9 ac28 35e7 34be 429a
00000090: 18df dae8 28f6 d51d 45f4 2014 1811 c9e8
000000a0: ed43 e4ee 3212 ea2b 0d10 452d 477f bb16
000000b0: 1221 1af1 18f6 f517 e02b dcf8 0b06 dd11
000000c0: ec66 a4bb c90e 2045 4b24 ea16 812d e6a2
000000d0: f917 3932 ec1f 4946 132d f2cd d770 3ac8
000000e0: 121b 3905 4fcd 1ccf 3ce9 f51d f20c f02e
000000f0: 291e 1de4 e72c bb11 2c7f 0de5 2432 c824

model/conv2d_6/Conv2D i1 [64, 1, 1, 24]
41 -39 -21 -30 14 -12 -5 -14
-5 13 -16 -5 10 1 31 -12
127 7 22 -45 -45 13 2 -37
-56 -50 78 -43 -109 -31 -32 -127
100 -1 104 -7 101 25 -60 -10
65 -10 -29 -102 -18 -27 -11 36
-28 34 48 -35 -44 -55 9 -10
35 23 -39 -3 22 24 13 37
30 13 -18 -31 1 9 -127 47
20 72 -36 43 2 17 18 40
9 24 72 40 42 -19 -41 6
24 30 79 127 -72 -10 -107 -59
30 -41 24 43 -127 2 -3 -7
63 12 40 -72 88 42 -86 -18
52 -31 -12 -60 -1 -55 -16 -9
43 -42 -45 -4 -53 -5 10 14
-49 -48 -26 -26 -17 41 -19 3
-3 95 7 117 -112 69 -127 -25
-19 -101 -1 68 28 -114 -15 -11
-19 6 -124 22 -38 -127 43 -16
-8 90 -80 -65 25 78 -44 -36
4 -73 127 -72 -25 -3 14 -55
88 83 -86 5 12 -24 -21 63
53 18 4 -65 16 24 22 92
65 -21 119 4 82 18 9 -127
-8 50 -50 -29 22 -90 30 30
-61 50 -38 -2 55 64 16 65
6 23 -6 2 45 -33 24 -22
-4 6 -22 -25 -7 -1 19 -1
-18 43 -42 -32 26 25 -127 73
127 -37 23 2 -32 -34 36 -31
-9 87 -43 9 14 -20 -1 101
00000000: 29d9 ebe2 0ef4 fbf2 fb0d f0fb 0a01 1ff4
00000010: 7f07 16d3 d30d 02db c8ce 4ed5 93e1 e081
00000020: 64ff 68f9 6519 c4f6 41f6 e39a eee5 f524
00000030: e422 30dd d4c9 09f6 2317 d9fd 1618 0d25
00000040: 1e0d eee1 0109 812f 1448 dc2b 0211 1228
00000050: 0918 4828 2aed d706 181e 4f7f b8f6 95c5
00000060: 1ed7 182b 8102 fdf9 3f0c 28b8 582a aaee
00000070: 34e1 f4c4 ffc9 f0f7 2bd6 d3fc cbfb 0a0e
00000080: cfd0 e6e6 ef29 ed03 fd5f 0775 9045 81e7
00000090: ed9b ff44 1c8e f1f5 ed06 8416 da81 2bf0
000000a0: f85a b0bf 194e d4dc 04b7 7fb8 e7fd 0ec9
000000b0: 5853 aa05 0ce8 eb3f 3512 04bf 1018 165c
000000c0: 41eb 7704 5212 0981 f832 cee3 16a6 1e1e
000000d0: c332 dafe 3740 1041 0617 fa02 2ddf 18ea
000000e0: fc06 eae7 f9ff 13ff ee2b d6e0 1a19 8149
000000f0: 7fdb 1702 e0de 24e1 f757 d509 0eec ff65

model/conv2d_7/Conv2D i1 [24, 1, 1, 64]
93 36 60 -13 -44 7 123 34
105 113 47 74 38 39 -64 -41
0 -21 44 0 -104 -1 -30 -7
81 -3 29 9 -29 0 -83 76
1 16 -121 41 42 -53 -3 -11
-8 -2 -3 19 -36 -32 40 29
-127 -10 -25 38 17 -53 -12 -29
47 -45 -44 75 7 73 -9 -60
50 -36 -59 -46 22 43 15 29
30 -47 25 -91 13 29 0 2
52 88 -32 16 -33 -70 -26 -30
-14 18 34 -42 25 -4 -40 -19
30 -43 23 16 25 -12 127 -19
18 55 -14 -55 81 -9 -2 11
-6 -46 -36 12 10 36 -8 -124
-10 -3 7 39 -11 20 3 -13
-86 32 8 23 30 -12 19 -12
64 21 15 -8 29 -105 -80 4
18 -105 36 23 47 9 14 9
0 81 4 111 30 20 -26 -127
85 104 7 58 -25 28 77 57
36 -37 -58 5 76 16 31 36
35 -33 33 55 8 6 -91 40
14 -86 -10 -29 -6 -45 -12 72
-26 -31 -105 16 17 -3 -14 30
-13 6 12 118 -96 33 -39 11
54 -32 10 -5 21 -11 -3 -31
-18 -51 1 -12 22 -5 -2 31
1 40 5 18 -1 -12 -51 -47
37 17 -11 -30 -20 -20 -127 -1
-11 -10 38 42 9 23 -18 -4
13 69 -12 40 -4 38 -5 -23
00000000: 5d24 3cf3 d407 7b22 6971 2f4a 2627 c0d7
00000010: 00eb 2c00 98ff e2f9 51fd 1d09 e300 ad4c
00000020: 0110 8729 2acb fdf5 f8fe fd13 dce0 281d
00000030: 81f6 e726 11cb f4e3 2fd3 d44b 0749 f7c4
00000040: 32dc c5d2 162b 0f1d 1ed1 19a5 0d1d 0002
00000050: 3458 e010 dfba e6e2 f212 22d6 19fc d8ed
00000060: 1ed5 1710 19f4 7fed 1237 f2c9 51f7 fe0b
00000070: fad2 dc0c 0a24 f884 f6fd 0727 f514 03f3
00000080: aa20 0817 1ef4 13f4 4015 0ff8 1d97 b004
00000090: 1297 2417 2f09 0e09 0051 046f 1e14 e681
000000a0: 5568 073a e71c 4d39 24db c605 4c10 1f24
000000b0: 23df 2137 0806 a528 0eaa f6e3 fad3 f448
000000c0: e6e1 9710 11fd f21e f306 0c76 a021 d90b
000000d0: 36e0 0afb 15f5 fde1 eecd 01f4 16fb fe1f
000000e0: 0128 0512 fff4 cdd1 2511 f5e2 ecec 81ff
000000f0: f5f6 262a 0917 eefc 0d45 f428 fc26 fbe9

model/conv2d_8/Conv2D i1 [96, 1, 1, 24]
-41 16 -15 72 -104 -112 127 -85
-45 -6 -61 36 -39 38 -36 -67
41 47 51 -25 -26 -108 -77 -49
22 -52 -9 -5 -11 -32 59 73
-34 -3 -57 -63 -96 49 -36 16
78 -96 -30 -127 -101 27 2 20
-40 46 65 -61 -32 80 43 -24
-47 -58 32 -7 58 -47 -9 97
-12 -113 -10 -22 32 127 2 118
-60 -17 -63 21 55 -29 15 39
-20 29 -35 39 1 -30 127 -15
-12 0 10 -60 81 46 -27 42
-16 82 109 0 -22 -61 -21 -13
-26 9 -13 15 -49 37 4 31
17 -127 -40 11 -23 -21 31 -21
27 9 81 -76 12 -127 -10 -101
-5 5 -6 23 -6 67 -66 -74
22 89 7 3 19 65 -74 -12
13 -80 31 -45 -66 42 22 -127
40 -79 15 32 -65 40 25 82
19 52 57 73 -6 -25 -32 36
31 17 3 108 -25 -89 -53 127
105 -55 -37 29 26 87 -15 31
-19 -33 -43 16 65 -27 -48 -21
39 1 -5 -127 -87 -44 23 -108
-76 -13 -35 -47 -77 -83 99 87
-5 53 -24 -8 -65 37 80 54
82 -11 56 4 16 30 70 -106
99 -10 -80 119 127 33 -34 86
-26 30 -15 -71 -6 99 -93 88
-2 -13 4 86 -2 70 -107 71
-36 44 -1 -31 -60 -1 -114 -61
00000000: d710 f148 9890 7fab d3fa c324 d926 dcbd
00000010: 292f 33e7 e694 b3cf 16cc f7fb f5e0 3b49
00000020: defd c7c1 a031 dc10 4ea0 e281 9b1b 0214
00000030: d82e 41c3 e050 2be8 d1c6 20f9 3ad1 f761
00000040: f48f f6ea 207f 0276 c4ef c115 37e3 0f27
00000050: ec1d dd27 01e2 7ff1 f400 0ac4 512e e52a
00000060: f052 6d00 eac3 ebf3 e609 f30f cf25 041f
00000070: 1181 d80b e9eb 1feb 1b09 51b4 0c81 f69b
00000080: fb05 fa17 fa43 beb6 1659 0703 1341 b6f4
00000090: 0db0 1fd3 be2a 1681 28b1 0f20 bf28 1952
000000a0: 1334 3949 fae7 e024 1f11 036c e7a7 cb7f
000000b0: 69c9 db1d 1a57 f11f eddf d510 41e5 d0eb
000000c0: 2701 fb81 a9d4 1794 b4f3 ddd1 b3ad 6357
000000d0: fb35 e8f8 bf25 5036 52f5 3804 101e 4696
000000e0: 63f6 b077 7f21 de56 e61e f1b9 fa63 a358
000000f0: fef3 0456 fe46 9547 dc2c ffe1 c4ff 8ec3

model/conv2d_9/Conv2D i1 [24, 1, 1, 96]
25 -33 -54 33 6 -25 1 16
77 3 36 39 -82 5 -67 -40
-31 82 17 77 -31 -3 -70 24
-36 -63 -6 55 34 -22 -14 -33
-31 27 54 -25 35 26 60 47
119 -52 -44 39 -1 -19 28 4
-42 22 -9 -7 -79 -68 21 -99
-32 -17 -59 43 -30 22 -70 6
-47 -85 9 36 1 -20 -18 -8
-43 -101 -6 27 22 125 36 56
-39 -9 -32 2 92 48 14 -61
12 -36 -2 -13 -41 4 13 -127
-54 24 -58 -5 -65 1 25 7
12 43 -33 -95 127 43 11 -98
-27 -72 -55 -38 -86 28 -69 51
53 16 90 -21 40 2 1 -54
3 -28 17 23 119 22 -52 -49
84 19 -44 93 -72 -19 -75 -38
87 18 14 -36 24 -65 -81 83
12 -14 -66 44 -44 17 -39 13
54 -30 44 -62 31 63 -28 -57
-47 5 32 -34 -18 40 -18 87
23 -15 13 -14 50 -74 76 -30
46 74 10 -49 -15 81 14 -95
-40 51 126 67 107 -69 -13 12
-20 17 -115 40 61 -29 -61 27
-33 92 92 -30 47 -5 -116 27
-27 -57 -4 -4 -127 20 11 92
16 43 27 31 -23 11 62 -3
101 -19 -23 -79 61 14 6 -73
51 -41 -35 9 30 105 49 -56
4 15 22 -9 124 76 -72 10
00000000: 19df ca21 06e7 0110 4d03 2427 ae05 bdd8
00000010: e152 114d e1fd ba18 dcc1 fa37 22ea f2df
00000020: e11b 36e7 231a 3c2f 77cc d427 ffed 1c04
00000030: d616 f7f9 b1bc 159d e0ef c52b e216 ba06
00000040: d1ab 0924 01ec eef8 d59b fa1b 167d 2438
00000050: d9f7 e002 5c30 0ec3 0cdc fef3 d704 0d81
00000060: ca18 c6fb bf01 1907 0c2b dfa1 7f2b 0b9e
00000070: e5b8 c9da aa1c bb33 3510 5aeb 2802 01ca
00000080: 03e4 1117 7716 cccf 5413 d45d b8ed b5da
00000090: 5712 0edc 18bf af53 0cf2 be2c d411 d90d
000000a0: 36e2 2cc2 1f3f e4c7 d105 20de ee28 ee57
000000b0: 17f1 0df2 32b6 4ce2 2e4a 0acf f151 0ea1
000000c0: d833 7e43 6bbb f30c ec11 8d28 3de3 c31b
000000d0: df5c 5ce2 2ffb 8c1b e5c7 fcfc 8114 0b5c
000000e0: 102b 1b1f e90b 3efd 65ed e9b1 3d0e 06b7
000000f0: 33d7 dd09 1e69 31c8 040f 16f7 7c4c b80a

model/conv2d_10/Conv2D i1 [96, 1, 1, 24]
26 -3 66 78 32 -54 69 -15
127 118 56 74 -28 -93 -32 63
-36 -31 38 -89 -54 -52 65 93
59 93 -47 -11 -2 -33 69 -1
-34 -1 14 -54 68 -8 36 15
-35 29 -127 96 20 -52 25 -12
-54 124 55 54 121 -91 64 50
94 125 -25 -70 8 127 48 -20
-85 17 112 103 13 -17 -27 -82
-2 -28 59 98 3 -45 -115 39
5 97 54 -72 -27 127 -42 24
-45 -65 -19 81 79 -1 -78 -33
15 -43 -10 5 127 19 -14 97
25 33 -4 -18 -1 29 -120 -64
73 -79 68 -59 -50 -40 4 -20
10 -52 0 -99 -22 -20 -42 -127
38 -38 123 74 36 -2 80 8
113 -4 17 -42 66 55 4 9
64 42 -31 19 77 -48 84 35
-50 94 29 20 -112 -127 -48 77
-66 -70 -16 12 -19 37 4 39
0 6 -65 4 -26 -5 -36 42
-20 13 -33 9 0 -31 -60 63
127 68 -20 -2 104 -10 3 -17
-110 -98 -66 29 -6 -19 66 36
67 -45 -60 125 -9 -22 -12 -31
-46 -30 60 93 -10 17 -127 1
39 -33 36 -40 -21 58 -5 -31
-62 -127 14 -60 -106 -52 63 -10
55 -32 44 24 100 99 -57 25
24 41 16 44 12 83 7 -61
-6 -24 -42 -11 -44 -25 -78 -76
00000000: 1afd 424e 20ca 45f1 7f76 384a e4a3 e03f
00000010: dce1 26a7 cacc 415d 3b5d d1f5 fedf 45ff
00000020: deff 0eca 44f8 240f dd1d 8160 14cc 19f4
00000030: ca7c 3736 79a5 4032 5e7d e7ba 087f 30ec
00000040: ab11 7067 0def e5ae fee4 3b62 03d3 8d27
00000050: 0561 36b8 e57f d618 d3bf ed51 4fff b2df
00000060: 0fd5 f605 7f13 f261 1921 fcee ff1d 88c0
00000070: 49b1 44c5 ced8 04ec 0acc 009d eaec d681
00000080: 26da 7b4a 24fe 5008 71fc 11d6 4237 0409
00000090: 402a e113 4dd0 5423 ce5e 1d14 9081 d04d
000000a0: beba f00c ed25 0427 0006 bf04 e6fb dc2a
000000b0: ec0d df09 00e1 c43f 7f44 ecfe 68f6 03ef
000000c0: 929e be1d faed 4224 43d3 c47d f7ea f4e1
000000d0: d2e2 3c5d f611 8101 27df 24d8 eb3a fbe1
000000e0: c281 0ec4 96cc 3ff6 37e0 2c18 6463 c719
000000f0: 1829 102c 0c53 07c3 fae8 d6f5 d4e7 b2b4

model/conv2d_11/Conv2D i1 [24, 1, 1, 96]
51 3 4 -49 1 -70 37 -14
-36 -8 67 -24 52 66 31 -5
-29 40 -27 15 50 -40 -18 14
-49 -46 -13 -3 51 -24 34 -29
-46 -33 -40 45 34 63 25 -6
-34 66 40 -13 55 49 89 -33
-6 -27 -42 -70 -127 -5 7 52
72 23 -42 13 -19 82 5 -33
-3 37 -64 -20 -21 -20 65 2
62 43 11 38 12 44 21 64
-2 -55 17 -40 -6 -53 -19 2
-17 -18 -79 5 42 53 -37 -24
-127 47 53 30 -38 -51 -39 -66
-51 30 -13 8 71 73 45 9
-30 -35 36 17 -24 -77 -21 -1
27 81 41 10 -48 27 -39 -43
-38 -63 -48 81 -5 -22 10 36
1 21 7 51 -24 53 15 -62
20 -61 -5 73 8 7 27 20
9 -6 17 -47 44 -13 17 -25
9 39 36 33 24 -49 30 -44
-30 -7 -3 38 21 -64 -16 -29
-12 -46 -90 -26 34 -92 -75 -19
-3 -30 -5 -48 -8 28 -29 -30
110 41 -2 -54 -29 -3 -18 -14
18 -53 -10 -40 -17 26 53 -18
30 -99 -44 -14 -50 2 -12 -22
-14 28 -65 -6 28 -30 -41 -20
-20 34 9 -14 -26 40 30 -22
40 82 -23 -50 -37 -32 -23 28
-52 -7 -18 -36 -43 1 -35 -54
42 1 29 -10 -32 18 -5 -17
00000000: 3303 04cf 01ba 25f2 dcf8 43e8 3442 1ffb
00000010: e328 e50f 32d8 ee0e cfd2 f3fd 33e8 22e3
00000020: d2df d82d 223f 19fa de42 28f3 3731 59df
00000030: fae5 d6ba 81fb 0734 4817 d60d ed52 05df
00000040: fd25 c0ec ebec 4102 3e2b 0b26 0c2c 1540
00000050: fec9 11d8 facb ed02 efee b105 2a35 dbe8
00000060: 812f 351e dacd d9be cd1e f308 4749 2d09
00000070: e2dd 2411 e8b3 ebff 1b51 290a d01b d9d5
00000080: dac1 d051 fbea 0a24 0115 0733 e835 0fc2
00000090: 14c3 fb49 0807 1b14 09fa 11d1 2cf3 11e7
000000a0: 0927 2421 18cf 1ed4 e2f9 fd26 15c0 f0e3
000000b0: f4d2 a6e6 22a4 b5ed fde2 fbd0 f81c e3e2
000000c0: 6e29 feca e3fd eef2 12cb f6d8 ef1a 35ee
000000d0: 1e9d d4f2 ce02 f4ea f21c bffa 1ce2 d7ec
000000e0: ec22 09f2 e628 1eea 2852 e9ce dbe0 e91c
000000f0: ccf9 eedc d501 ddca 2a01 1df6 e012 fbef

model/conv2d_12/Conv2D i1 [96, 1, 1, 24]
-41 2 -5 -39 25 -35 -76 27
-28 19 -16 -42 127 -36 -32 -15
10 -89 5 -15 -56 -68 -16 19
90 36 76 -54 -39 3 67 23
-16 57 -127 -77 -58 77 -36 -114
-46 93 5 88 -69 -55 -9 -50
-89 -109 79 31 -63 25 61 127
19 13 115 15 21 111 17 -16
22 110 -59 -87 32 -19 65 -30
73 63 -27 9 36 41 -88 -48
-100 -8 -74 18 92 -56 89 13
-4 -61 16 127 1 -108 -44 -41
-69 43 56 -20 -13 -49 96 8
29 -22 -1 -18 81 44 14 11
127 41 -14 2 12 43 28 19
-6 -99 41 -2 31 -58 87 -87
-4 45 28 21 -41 -51 4 86
5 127 22 92 -22 -17 -8 -22
20 -127 -25 -15 -69 88 -37 -110
108 106 -2 99 63 -8 87 41
-85 86 51 -19 2 75 -66 17
71 -101 34 34 60 8 -49 -118
8 82 44 13 -104 127 -13 31
-90 -115 -10 22 29 -109 -80 18
66 -4 86 -58 45 -28 7 -9
-13 62 -57 58 -29 -47 -29 -31
-86 -44 -88 -17 -127 74 26 67
0 -72 -71 -71 127 58 -27 111
-24 3 -73 -88 10 -53 26 -26
109 -20 -21 -62 -94 -68 -97 60
-3 -41 -43 -51 -23 127 -73 18
126 119 -44 -80 52 -52 69 -26
00000000: d702 fbd9 19dd b41b e413 f0d6 7fdc e0f1
00000010: 0aa7 05f1 c8bc f013 5a24 4cca d903 4317
00000020: f039 81b3 c64d dc8e d25d 0558 bbc9 f7ce
00000030: a793 4f1f c119 3d7f 130d 730f 156f 11f0
00000040: 166e c5a9 20ed 41e2 493f e509 2429 a8d0
00000050: 9cf8 b612 5cc8 590d fcc3 107f 0194 d4d7
00000060: bb2b 38ec f3cf 6008 1dea ffee 512c 0e0b
00000070: 7f29 f202 0c2b 1c13 fa9d 29fe 1fc6 57a9
00000080: fc2d 1c15 d7cd 0456 057f 165c eaef f8ea
00000090: 1481 e7f1 bb58 db92 6c6a fe63 3ff8 5729
000000a0: ab56 33ed 024b be11 479b 2222 3c08 cf8a
000000b0: 0852 2c0d 987f f31f a68d f616 1d93 b012
000000c0: 42fc 56c6 2de4 07f7 f33e c73a e3d1 e3e1
000000d0: aad4 a8ef 814a 1a43 00b8 b9b9 7f3a e56f
000000e0: e803 b7a8 0acb 1ae6 6dec ebc2 a2bc 9f3c
000000f0: fdd7 d5cd e97f b712 7e77 d4b0 34cc 45e6

model/conv2d_13/Conv2D i1 [24, 1, 1, 96]
-10 39 -15 -34 17 -55 -5 31
26 27 3 53 -74 -27 23 -81
-67 34 75 -40 42 -59 68 -1
-13 -76 -127 16 59 -26 26 -49
13 60 -4 -10 27 5 22 -21
101 30 40 -24 60 100 -26 -94
42 -1 -61 52 -10 -3 50 21
38 44 59 -8 -17 5 5 -38
58 54 -9 34 38 57 54 -113
-20 -104 -86 -53 6 101 -5 -20
-65 -36 60 -48 -4 29 19 -25
46 -3 -29 -27 2 2 -40 -71
37 -42 46 -20 -6 37 -52 79
-3 36 18 -8 68 -67 43 36
58 82 -39 -60 76 81 -70 -59
65 127 -91 -37 -25 -38 19 81
-17 17 -21 78 41 -17 -19 22
21 51 8 26 -29 -54 93 -9
-54 -19 -15 -67 51 -22 29 72
-29 55 -6 -22 75 9 -26 -17
26 -9 -83 -7 24 114 46 33
-10 -65 -3 18 8 -30 44 92
-60 -32 -63 39 14 -37 -26 56
5 -51 -48 -20 -49 -32 30 -23
63 54 -37 -32 56 -63 0 18
56 -14 -43 19 16 14 6 -38
54 -23 69 61 -21 -37 -53 4
-7 -43 19 28 59 13 -10 55
-5 18 21 39 -86 -9 13 29
-14 5 -20 38 -30 30 -26 127
-13 21 100 73 18 -2 112 11
38 -19 -34 84 95 5 -32 15
00000000: f627 f1de 11c9 fb1f 1a1b 0335 b6e5 17af
00000010: bd22 4bd8 2ac5 44ff f3b4 8110 3be6 1acf
00000020: 0d3c fcf6 1b05 16eb 651e 28e8 3c64 e6a2
00000030: 2aff c334 f6fd 3215 262c 3bf8 ef05 05da
00000040: 3a36 f722 2639 368f ec98 aacb 0665 fbec
00000050: bfdc 3cd0 fc1d 13e7 2efd e3e5 0202 d8b9
00000060: 25d6 2eec fa25 cc4f fd24 12f8 44bd 2b24
00000070: 3a52 d9c4 4c51 bac5 417f a5db e7da 1351
00000080: ef11 eb4e 29ef ed16 1533 081a e3ca 5df7
00000090: caed f1bd 33ea 1d48 e337 faea 4b09 e6ef
000000a0: 1af7 adf9 1872 2e21 f6bf fd12 08e2 2c5c
000000b0: c4e0 c127 0edb e638 05cd d0ec cfe0 1ee9
000000c0: 3f36 dbe0 38c1 0012 38f2 d513 100e 06da
000000d0: 36e9 453d ebdb cb04 f9d5 131c 3b0d f637
000000e0: fb12 1527 aaf7 0d1d f205 ec26 e21e e67f
000000f0: f315 6449 12fe 700b 26ed de54 5f05 e00f

model/conv2d_14/Conv2D i1 [128, 1, 1, 88]
6 14 -89 63 36 46 69 98
-72 27 -46 -29 33 3 -95 -24
-35 -84 81 61 63 22 -7 30
11 27 0 -25 9 -58 -35 38
-44 88 18 30 -7 23 -8 -18
-5 -9 0 6 10 14 9 9
2 -54 -2 -42 26 8 -39 32
-44 -24 -18 20 10 -20 -53 -1
-21 14 -22 17 -45 -56 -19 9
-127 -30 -10 13 14 29 2 -10
-1 25 -10 37 -12 90 27 -77
-11 -9 -11 96 -51 53 -14 0
18 -3 -36 22 4 -17 -65 9
4 -27 -60 24 -50 -100 28 40
38 -28 -36 -34 102 -108 -127 -17
124 -65 -38 17 -23 62 14 74
0 34 1 -84 54 -87 33 -47
-21 15 42 7 3 33 30 29
-29 32 57 -61 -26 -42 6 -1
-59 5 41 -90 -36 39 -26 -44
-67 -105 3 75 63 69 -60 9
-43 -3 -29 35 1 -33 1 -17
-9 40 -92 -20 40 -34 -40 42
-67 -59 12 -41 -11 13 25 14
-49 -127 4 -48 2 -6 38 -3
9 7 47 43 -22 -11 22 3
-26 2 -20 23 26 -53 8 -13
33 12 38 23 -17 -27 18 -18
15 7 16 26 33 16 -19 41
-77 -26 1 -8 48 -9 -45 -20
17 -20 -25 51 22 3 -5 -30
-7 -1 -6 -44 -14 -10 3 -60
00000000: 060e a73f 242e 4562 b81b d2e3 2103 a1e8
00000010: ddac 513d 3f16 f91e 0b1b 00e7 09c6 dd26
00000020: d458 121e f917 f8ee fbf7 0006 0a0e 0909
00000030: 02ca fed6 1a08 d920 d4e8 ee14 0aec cbff
00000040: eb0e ea11 d3c8 ed09 81e2 f60d 0e1d 02f6
00000050: ff19 f625 f45a 1bb3 f5f7 f560 cd35 f200
00000060: 12fd dc16 04ef bf09 04e5 c418 ce9c 1c28
00000070: 26e4 dcde 6694 81ef 7cbf da11 e93e 0e4a
00000080: 0022 01ac 36a9 21d1 eb0f 2a07 0321 1e1d
00000090: e320 39c3 e6d6 06ff c505 29a6 dc27 e6d4
000000a0: bd97 034b 3f45 c409 d5fd e323 01df 01ef
000000b0: f728 a4ec 28de d82a bdc5 0cd7 f50d 190e
000000c0: cf81 04d0 02fa 26fd 0907 2f2b eaf5 1603
000000d0: e602 ec17 1acb 08f3 210c 2617 efe5 12ee
000000e0: 0f07 101a 2110 ed29 b3e6 01f8 30f7 d3ec
000000f0: 11ec e733 1603 fbe2 f9ff fad4 f2f6 03c4

model/conv2d_15/Conv2D i1 [64, 1, 1, 128]
-42 26 32 -3 104 -18 16 26
18 87 127 45 20 6 -9 25
21 -6 -8 11 -13 -7 43 -19
83 14 -63 45 -29 6 -21 9
11 -22 24 21 44 36 107 24
31 45 12 -15 8 -15 25 0
-17 -5 10 12 4 -11 -19 -5
-27 -14 26 22 -39 -4 -28 16
-3 12 -9 6 24 -3 4 18
6 26 21 -12 20 17 -23 -17
13 1 -21 39 12 47 18 -1
-6 -36 6 -27 5 -16 2 3
-17 -74 19 17 0 -3 3 45
7 0 58 60 15 -12 123 14
-20 -6 15 6 -8 20 13 -19
5 -33 25 -24 -95 50 -71 0
-19 38 7 5 -34 2 -20 -7
11 -16 69 -5 -50 -11 19 3
-40 -4 -22 -14 -10 -18 4 5
8 25 -27 -38 -2 14 -3 -36
67 46 -12 14 6 -9 -22 17
-6 -7 39 -2 -16 -12 -14 13
0 13 -3 9 -16 53 -4 8
-12 61 2 -21 -3 -12 -24 -9
7 -12 -13 -8 -23 -2 -47 10
5 10 10 10 -28 127 4 -3
-2 24 4 -2 0 0 -22 20
12 -48 -41 1 -11 20 -3 -4
2 4 21 -24 19 -24 -18 18
6 -11 38 56 -11 8 -30 -41
-3 3 -11 -13 55 36 25 -2
-22 16 23 -42 -12 2 -8 -8
00000000: d61a 20fd 68ee 101a 1257 7f2d 1406 f719
00000010: 15fa f80b f3f9 2bed 530e c12d e306 eb09
00000020: 0bea 1815 2c24 6b18 1f2d 0cf1 08f1 1900
00000030: effb 0a0c 04f5 edfb e5f2 1a16 d9fc e410
00000040: fd0c f706 18fd 0412 061a 15f4 1411 e9ef
00000050: 0d01 eb27 0c2f 12ff fadc 06e5 05f0 0203
00000060: efb6 1311 00fd 032d 0700 3a3c 0ff4 7b0e
00000070: ecfa 0f06 f814 0ded 05df 19e8 a132 b900
00000080: ed26 0705 de02 ecf9 0bf0 45fb cef5 1303
00000090: d8fc eaf2 f6ee 0405 0819 e5da fe0e fddc
000000a0: 432e f40e 06f7 ea11 faf9 27fe f0f4 f20d
000000b0: 000d fd09 f035 fc08 f43d 02eb fdf4 e8f7
000000c0: 07f4 f3f8 e9fe d10a 050a 0a0a e47f 04fd
000000d0: fe18 04fe 0000 ea14 0cd0 d701 f514 fdfc
000000e0: 0204 15e8 13e8 ee12 06f5 2638 f508 e2d7
000000f0: fd03 f5f3 3724 19fe ea10 17d6 f402 f8f8

model/conv2d_16/Conv2D i1 [256, 1, 1, 64]
-2 78 -78 -62 15 -35 -82 -67
-58 -61 -26 -49 17 -49 108 -12
-39 15 97 25 -64 -73 24 21
126 127 -105 67 54 115 115 -78
29 -17 -9 -76 -30 6 11 -28
-24 -60 -28 -69 -34 29 52 41
-7 60 2 58 96 58 -96 -12
-37 42 -24 119 5 -26 36 -56
-3 33 -127 25 -106 -127 -94 -16
-12 103 20 47 1 -38 3 -103
15 16 -24 -7 -77 -49 -35 18
-52 72 47 16 -67 -18 -6 61
-16 2 -8 16 59 105 -47 3
28 -47 110 83 14 -61 -33 1
-60 30 79 -40 41 -19 -40 40
17 48 -55 -11 -58 14 -57 -78
-26 -24 60 -20 11 14 2 -6
-39 -14 -5 -48 -127 -5 -29 -20
47 0 -29 -26 -8 -30 0 -1
-78 -48 -56 14 1 -58 -62 8
-100 56 -27 28 9 -8 39 55
80 36 -46 0 -28 -13 13 -55
-48 9 -14 12 -63 -21 -59 -1
57 -55 -24 -4 -1 -44 21 23
-7 -39 24 15 10 23 -27 -111
-20 -8 -78 -15 6 -32 59 42
31 3 10 9 13 114 -29 -1
9 -18 11 -23 -40 -17 -52 46
-42 58 -11 9 24 -22 127 50
-3 11 -12 -17 10 -21 -14 37
36 -28 -26 56 -35 38 8 15
28 19 10 16 -33 -49 8 32
00000000: fe4e b2c2 0fdd aebd c6c3 e6cf 11cf 6cf4
00000010: d90f 6119 c0b7 1815 7e7f 9743 3673 73b2
00000020: 1def f7b4 e206 0be4 e8c4 e4bb de1d 3429
00000030: f93c 023a 603a a0f4 db2a e877 05e6 24c8
00000040: fd21 8119 9681 a2f0 f467 142f 01da 0399
00000050: 0f10 e8f9 b3cf dd12 cc48 2f10 bdee fa3d
00000060: f002 f810 3b69 d103 1cd1 6e53 0ec3 df01
00000070: c41e 4fd8 29ed d828 1130 c9f5 c60e c7b2
00000080: e6e8 3cec 0b0e 02fa d9f2 fbd0 81fb e3ec
00000090: 2f00 e3e6 f8e2 00ff b2d0 c80e 01c6 c208
000000a0: 9c38 e51c 09f8 2737 5024 d200 e4f3 0dc9
000000b0: d009 f20c c1eb c5ff 39c9 e8fc ffd4 1517
000000c0: f9d9 180f 0a17 e591 ecf8 b2f1 06e0 3b2a
000000d0: 1f03 0a09 0d72 e3ff 09ee 0be9 d8ef cc2e
000000e0: d63a f509 18ea 7f32 fd0b f4ef 0aeb f225
000000f0: 24e4 e638 dd26 080f 1c13 0a10 dfcf 0820

model/conv2d_17/Conv2D i1 [30, 1, 1, 256]
18 -2 -6 -8 10 -5 21 32
10 5 -8 55 30 63 -68 -5
-93 5 6 -52 27 -33 -6 10
31 14 -23 -10 -3 -7 28 39
-7 24 -64 -28 -22 22 7 -10
-8 29 56 -16 -25 51 51 -6
-5 -41 -52 -7 -18 2 71 29
-23 -2 -12 48 -21 -45 -6 11
22 -8 44 31 35 -43 61 -8
-59 -4 9 -25 -75 0 45 -14
-69 91 31 15 -11 47 -1 -2
-11 73 5 17 -11 -9 35 47
-16 15 -41 40 53 97 -4 13
34 41 -33 -10 -26 -21 -17 -14
-16 0 47 10 36 -3 -11 7
-7 -10 7 1 4 -11 0 10
-31 10 30 21 19 -38 -70 -11
-8 -26 -98 14 -15 -3 10 -4
-15 -24 55 -48 -8 70 12 45
53 -8 61 15 -7 -69 -7 -19
2 -8 26 36 29 -35 18 9
9 90 -10 54 35 57 -42 34
-38 4 -7 -5 43 -105 -32 36
29 -26 19 3 54 -2 5 -32
0 6 2 47 13 -9 -17 10
7 0 3 -22 1 -8 8 -25
12 -5 -48 -51 6 -39 -54 -18
8 14 11 -31 0 -29 -21 -127
-8 2 -43 -62 -23 -7 -9 -38
15 10 10 3 -6 -59 52 -1
-42 -3 6 17 -20 -31 32 -38
-13 -20 -58 -11 11 -26 -93 -65
00000000: 12fe faf8 0afb 1520 0a05 f837 1e3f bcfb
00000010: a305 06cc 1bdf fa0a 1f0e e9f6 fdf9 1c27
00000020: f918 c0e4 ea16 07f6 f81d 38f0 e733 33fa
00000030: fbd7 ccf9 ee02 471d e9fe f430 ebd3 fa0b
00000040: 16f8 2c1f 23d5 3df8 c5fc 09e7 b500 2df2
00000050: bb5b 1f0f f52f fffe f549 0511 f5f7 232f
00000060: f00f d728 3561 fc0d 2229 dff6 e6eb eff2
00000070: f000 2f0a 24fd f507 f9f6 0701 04f5 000a
00000080: e10a 1e15 13da baf5 f8e6 9e0e f1fd 0afc
00000090: f1e8 37d0 f846 0c2d 35f8 3d0f f9bb f9ed
000000a0: 02f8 1a24 1ddd 1209 095a f636 2339 d622
000000b0: da04 f9fb 2b97 e024 1de6 1303 36fe 05e0
000000c0: 0006 022f 0df7 ef0a 0700 03ea 01f8 08e7
000000d0: 0cfb d0cd 06d9 caee 080e 0be1 00e3 eb81
000000e0: f802 d5c2 e9f9 f7da 0f0a 0a03 fac5 34ff
000000f0: d6fd 0611 ece1 20da f3ec c6f5 0be6 a3bf

model/batch_normalization_2/FusedBatchNormV3;model/depthwise_conv2d/depthwise;model/conv2d_3/Conv2D i1 [1, 3, 3, 8]
-9 -91 47 52 26 -49 30 53
84 -3 126 40 -127 27 86 40
22 82 28 18 -15 30 51 11
127 -127 -34 122 74 -93 71 120
58 111 -1 127 19 21 127 127
-20 75 41 38 -52 127 67 29
125 -26 -29 77 40 -71 57 77
-53 114 -127 104 58 12 50 95
-21 -12 -49 28 13 104 23 28
00000000: f7a5 2f34 1acf 1e35 54fd 7e28 811b 5628
00000010: 1652 1c12 f11e 330b 7f81 de7a 4aa3 4778
00000020: 3a6f ff7f 1315 7f7f ec4b 2926 cc7f 431d
00000030: 7de6 e34d 28b9 394d cb72 8168 3a0c 325f
00000040: ebf4 cf1c 0d68 171c

model/batch_normalization_6/FusedBatchNormV3;model/depthwise_conv2d_1/depthwise i1 [1, 3, 3, 48]
-2 34 2 11 6 23 -26 -22
13 11 9 6 -24 -1 -9 -42
-37 6 4 -8 -2 43 -2 3
1 -42 34 4 -9 4 7 3
-3 17 -1 12 11 -6 -6 -15
-2 -13 -1 18 -9 4 -9 51
16 4 -17 44 -3 22 -18 -6
56 -13 5 36 -127 -20 -36 -68
40 1 5 5 -47 -43 -3 -20
33 29 -127 44 -29 -7 -49 21
-6 13 5 -82 14 3 15 -53
61 115 -120 81 -41 -11 6 127
-3 -54 6 -117 35 -67 -46 -12
4 -4 11 59 -96 30 -66 127
-19 -31 -4 1 10 50 15 -5
7 3 41 -42 0 6 6 -127
15 52 53 82 1 -68 -6 0
48 2 123 -127 43 39 53 4
-2 -62 33 -14 20 -1 -37 26
-13 -3 127 -10 21 24 31 -23
-6 -8 105 -9 5 -48 122 -5
3 86 -57 -11 -42 -16 -41 -11
-9 -12 10 127 -23 -20 -46 32
-56 2 25 16 4 -19 -4 -31
-127 56 -8 -33 81 10 98 127
110 15 -91 7 70 127 -107 -57
82 -18 -127 127 127 -127 -11 27
-127 89 106 75 -94 -84 -22 -24
127 -127 -24 -57 -127 -126 127 127
23 -127 112 -12 -30 -78 -45 -112
14 -127 -127 127 -127 -94 16 7
-4 -9 -16 -127 46 -24 -123 52
00000000: fe22 020b 0617 e6ea 0d0b 0906 e8ff f7d6
00000010: db06 04f8 fe2b fe03 01d6 2204 f704 0703
00000020: fd11 ff0c 0bfa faf1 fef3 ff12 f704 f733
00000030: 1004 ef2c fd16 eefa 38f3 0524 81ec dcbc
00000040: 2801 0505 d1d5 fdec 211d 812c e3f9 cf15
00000050: fa0d 05ae 0e03 0fcb 3d73 8851 d7f5 067f
00000060: fdca 068b 23bd d2f4 04fc 0b3b a01e be7f
00000070: ede1 fc01 0a32 0ffb 0703 29d6 0006 0681
00000080: 0f34 3552 01bc fa00 3002 7b81 2b27 3504
00000090: fec2 21f2 14ff db1a f3fd 7ff6 1518 1fe9
000000a0: faf8 69f7 05d0 7afb 0356 c7f5 d6f0 d7f5
000000b0: f7f4 0a7f e9ec d220 c802 1910 04ed fce1
000000c0: 8138 f8df 510a 627f 6e0f a507 467f 95c7
000000d0: 52ee 817f 7f81 f51b 8159 6a4b a2ac eae8
000000e0: 7f81 e8c7 8182 7f7f 1781 70f4 e2b2 d390
000000f0: 0e81 817f 81a2 1007 fcf7 f081 2ee8 8534

model/batch_normalization_9/FusedBatchNormV3;model/depthwise_conv2d_2/depthwise;model/conv2d_15/Conv2D i1 [1, 3, 3, 64]
38 -31 8 33 59 24 17 -76
-56 -49 -77 42 -74 -20 -58 -71
-14 -42 48 22 21 30 35 22
42 37 36 -42 42 70 -42 17
-53 -38 105 11 -11 -50 -24 31
-49 -38 62 38 -5 -29 -43 19
-22 27 -25 13 64 -7 35 -28
-89 -49 -59 29 -16 26 41 34
58 -54 43 39 81 77 37 -43
-127 -127 -124 43 -93 -43 -118 -89
-59 -76 44 114 68 71 94 65
127 85 85 -39 83 122 -32 39
-95 -47 127 -29 113 -84 -58 60
-81 81 76 74 -27 -63 -59 40
-6 72 -59 85 127 -66 85 -43
-127 55 -82 68 -24 64 84 -14
32 -48 29 13 49 55 20 79
-123 -116 -85 30 -47 -31 -106 -80
-64 -58 -6 104 61 63 79 54
107 62 67 8 54 46 8 21
-50 -50 57 -47 66 -15 -51 44
-41 -68 33 48 -16 -50 -17 26
3 69 -59 89 125 -81 66 -2
-98 73 -61 46 17 27 56 -66
87 -73 43 67 78 19 52 -121
11 5 46 86 -63 26 75 -102
-70 -70 105 24 36 49 65 64
32 63 14 -86 62 104 -59 68
-93 -90 61 -67 -114 -105 -47 27
-62 -73 79 79 -58 27 -85 58
36 53 -76 16 42 -32 62 -92
16 44 -83 49 81 71 11 38
00000000: 26e1 0821 3b18 11b4 c8cf b32a b6ec c6b9
00000010: f2d6 3016 151e 2316 2a25 24d6 2a46 d611
00000020: cbda 690b f5ce e81f cfda 3e26 fbe3 d513
00000030: ea1b e70d 40f9 23e4 a7cf c51d f01a 2922
00000040: 3aca 2b27 514d 25d5 8181 842b a3d5 8aa7
00000050: c5b4 2c72 4447 5e41 7f55 55d9 537a e027
00000060: a1d1 7fe3 71ac c63c af51 4c4a e5c1 c528
00000070: fa48 c555 7fbe 55d5 8137 ae44 e840 54f2
00000080: 20d0 1d0d 3137 144f 858c ab1e d1e1 96b0
00000090: c0c6 fa68 3d3f 4f36 6b3e 4308 362e 0815
000000a0: cece 39d1 42f1 cd2c d7bc 2130 f0ce ef1a
000000b0: 0345 c559 7daf 42fe 9e49 c32e 111b 38be
000000c0: 57b7 2b43 4e13 3487 0b05 2e56 c11a 4b9a
000000d0: baba 6918 2431 4140 203f 0eaa 3e68 c544
000000e0: a3a6 3dbd 8e97 d11b c2b7 4f4f c61b ab3a
000000f0: 2435 b410 2ae0 3ea4 102c ad31 5147 0b26

model/batch_normalization_12/FusedBatchNormV3;model/depthwise_conv2d_3/depthwise;model/depthwise_conv2d_5/depthwise i1 [1, 3, 3, 96]
-127 113 63 -24 -92 46 -27 22
-18 -15 89 -40 -101 31 48 14
4 16 5 -17 54 0 65 -51
-91 -20 50 -45 27 -69 4 127
41 46 -7 -120 15 21 -21 -43
-49 22 -93 -2 10 45 -32 -13
-68 93 14 -104 -52 -47 -12 62
-19 25 -59 127 42 23 -7 -15
-127 127 -2 49 37 31 -74 -1
-58 -6 19 39 21 5 23 -25
82 29 30 -81 105 6 23 -17
-7 -1 32 -90 -34 93 -107 -25
-75 -127 127 -93 -79 45 15 -5
1 7 33 106 -25 57 -65 17
-55 127 -127 87 -11 -47 3 50
61 -65 116 5 127 34 127 0
109 127 -108 -122 -127 -9 -127 -36
49 127 -79 -4 -20 -56 107 -67
-25 127 15 -34 127 -79 0 16
-88 -52 -45 -16 -10 -66 -20 77
-8 -4 -29 -11 -93 4 -127 -115
127 16 98 125 48 28 47 -127
6 52 -21 127 70 75 -12 70
-14 5 17 -28 28 127 -127 127
-119 -58 37 -47 -127 -93 -21 -15
-13 47 71 -27 84 69 -93 1
2 52 48 -18 -102 54 73 70
-127 -39 127 -27 -3 127 32 -53
54 58 -45 -126 -42 19 -36 -68
-21 -9 -97 -15 -23 46 23 127
75 122 62 127 -120 -19 127 81
-33 19 -79 -70 7 5 0 -95
00000000: 8171 3fe8 a42e e516 eef1 59d8 9b1f 300e
00000010: 0410 05ef 3600 41cd a5ec 32d3 1bbb 047f
00000020: 292e f988 0f15 ebd5 cf16 a3fe 0a2d e0f3
00000030: bc5d 0e98 ccd1 f43e ed19 c57f 2a17 f9f1
00000040: 817f fe31 251f b6ff c6fa 1327 1505 17e7
00000050: 521d 1eaf 6906 17ef f9ff 20a6 de5d 95e7
00000060: b581 7fa3 b12d 0ffb 0107 216a e739 bf11
00000070: c97f 8157 f5d1 0332 3dbf 7405 7f22 7f00
00000080: 6d7f 9486 81f7 81dc 317f b1fc ecc8 6bbd
00000090: e77f 0fde 7fb1 0010 a8cc d3f0 f6be ec4d
000000a0: f8fc e3f5 a304 818d 7f10 627d 301c 2f81
000000b0: 0634 eb7f 464b f446 f205 11e4 1c7f 817f
000000c0: 89c6 25d1 81a3 ebf1 f32f 47e5 5445 a301
000000d0: 0234 30ee 9a36 4946 81d9 7fe5 fd7f 20cb
000000e0: 363a d382 d613 dcbc ebf7 9ff1 e92e 177f
000000f0: 4b7a 3e7f 88ed 7f51 df13 b1ba 0705 00a1

model/batch_normalization_15/FusedBatchNormV3;model/depthwise_conv2d_4/depthwise;model/depthwise_conv2d_5/depthwise i1 [1, 3, 3, 96]
11 127 34 -87 5 26 56 -14
-9 110 -94 50 -3 54 17 -32
67 -52 126 -98 124 127 76 26
64 72 -4 -87 63 -110 -10 -46
16 16 -84 -50 87 14 116 20
-62 78 -68 -47 44 13 -70 -66
40 8 -100 -4 33 31 -98 23
68 23 127 -39 13 -59 -119 111
31 127 118 -35 24 74 121 4
59 -105 44 14 -15 -29 23 66
-74 32 37 32 114 13 43 92
0 10 75 -33 66 70 -64 95
-9 -30 8 19 -19 -4 127 -3
34 81 -102 20 19 118 26 -53
127 23 -89 -86 -10 -20 123 18
127 93 93 -100 127 -69 -77 -53
54 20 -65 -46 -2 -15 -14 26
-50 22 -127 -127 101 27 -100 127
48 -127 -78 20 45 -127 14 -127
127 115 10 -38 0 -53 -127 36
127 -19 86 -127 -50 68 87 -123
-49 -127 67 -11 111 -71 38 127
-52 -5 -25 59 127 -51 109 127
122 -14 102 -75 10 60 4 82
10 -19 21 46 57 55 104 -18
-3 127 -127 -72 13 100 46 -38
-114 -68 111 -66 13 113 90 47
107 -58 78 -127 96 -127 88 -65
5 25 -105 111 12 26 -11 20
-79 70 -67 -119 77 56 -100 -27
66 -10 -127 25 41 14 94 42
75 127 -52 -9 18 -30 -18 110
00000000: 0b7f 22a9 051a 38f2 f76e a232 fd36 11e0
00000010: 43cc 7e9e 7c7f 4c1a 4048 fca9 3f92 f6d2
00000020: 1010 acce 570e 7414 c24e bcd1 2c0d babe
00000030: 2808 9cfc 211f 9e17 4417 7fd9 0dc5 896f
00000040: 1f7f 76dd 184a 7904 3b97 2c0e f1e3 1742
00000050: b620 2520 720d 2b5c 000a 4bdf 4246 c05f
00000060: f7e2 0813 edfc 7ffd 2251 9a14 1376 1acb
00000070: 7f17 a7aa f6ec 7b12 7f5d 5d9c 7fbb b3cb
00000080: 3614 bfd2 fef1 f21a ce16 8181 651b 9c7f
00000090: 3081 b214 2d81 0e81 7f73 0ada 00cb 8124
000000a0: 7fed 5681 ce44 5785 cf81 43f5 6fb9 267f
000000b0: ccfb e73b 7fcd 6d7f 7af2 66b5 0a3c 0452
000000c0: 0aed 152e 3937 68ee fd7f 81b8 0d64 2eda
000000d0: 8ebc 6fbe 0d71 5a2f 6bc6 4e81 6081 58bf
000000e0: 0519 976f 0c1a f514 b146 bd89 4d38 9ce5
000000f0: 42f6 8119 290e 5e2a 4b7f ccf7 12e2 ee6e

model/batch_normalization_18/FusedBatchNormV3;model/depthwise_conv2d_5/depthwise i1 [1, 3, 3, 96]
-16 64 33 127 -127 7 18 123
-127 -16 -58 50 50 127 29 41
21 127 -52 -60 -31 -61 70 27
112 84 106 -25 -30 125 -30 -71
-51 9 115 -1 -111 60 127 16
29 -71 -71 -7 119 -127 -15 -62
46 -50 -68 30 -72 -66 -62 -46
39 101 -26 61 -66 -87 -91 -38
85 8 45 54 33 60 30 69
-113 -4 38 82 -37 -8 76 -36
-75 26 -43 13 8 -9 -34 8
127 -9 6 -91 -127 112 -127 -82
33 45 36 1 81 16 -3 -20
-61 -53 -16 -21 87 38 44 -109
26 -22 -24 127 -27 -1 52 67
25 100 37 108 -86 3 87 -57
-10 82 37 127 -24 0 61 93
22 -44 -74 -56 72 -23 0 -6
8 -16 0 17 37 6 -37 -92
-27 -72 14 -19 -97 -25 -3 -4
-17 -15 127 127 127 -9 -7 -8
-17 -103 -28 39 -22 -73 -33 -98
-75 62 -99 127 -11 -127 65 21
-81 79 127 3 -88 23 -8 28
32 89 -21 -43 -46 30 31 127
-116 127 5 -57 97 -8 -41 -35
36 101 -13 116 -30 -50 102 60
127 127 16 127 -78 122 58 -88
127 -4 10 46 -114 -120 -66 18
112 -37 -82 37 127 -106 -23 -60
92 35 127 44 -76 127 -92 38
-30 51 -44 50 -111 -102 92 -107
00000000: f040 217f 8107 127b 81f0 c632 327f 1d29
00000010: 157f ccc4 e1c3 461b 7054 6ae7 e27d e2b9
00000020: cd09 73ff 913c 7f10 1db9 b9f9 7781 f1c2
00000030: 2ece bc1e b8be c2d2 2765 e63d bea9 a5da
00000040: 5508 2d36 213c 1e45 8ffc 2652 dbf8 4cdc
00000050: b51a d50d 08f7 de08 7ff7 06a5 8170 81ae
00000060: 212d 2401 5110 fdec c3cb f0eb 5726 2c93
00000070: 1aea e87f e5ff 3443 1964 256c aa03 57c7
00000080: f652 257f e800 3d5d 16d4 b6c8 48e9 00fa
00000090: 08f0 0011 2506 dba4 e5b8 0eed 9fe7 fdfc
000000a0: eff1 7f7f 7ff7 f9f8 ef99 e427 eab7 df9e
000000b0: b53e 9d7f f581 4115 af4f 7f03 a817 f81c
000000c0: 2059 ebd5 d21e 1f7f 8c7f 05c7 61f8 d7dd
000000d0: 2465 f374 e2ce 663c 7f7f 107f b27a 3aa8
000000e0: 7ffc 0a2e 8e88 be12 70db ae25 7f96 e9c4
000000f0: 5c23 7f2c b47f a426 e233 d432 919a 5c95

model/batch_normalization_21/FusedBatchNormV3;model/depthwise_conv2d_6/depthwise i1 [1, 3, 3, 128]
-85 -16 -63 11 -44 -10 -2 32
127 12 -36 2 14 -33 63 53
23 13 -25 2 88 -10 -48 5
31 -26 -7 -65 52 13 39 12
-23 43 65 -73 -36 -77 2 -21
-4 61 82 67 30 4 -1 16
-49 23 126 -59 2 73 105 12
-5 113 -16 -43 -12 67 -1 -51
12 33 84 -9 -100 -81 -47 -3
17 -79 4 4 -127 70 2 -27
48 -50 32 31 -3 57 -37 38
78 1 -31 12 6 -30 -93 -127
-85 107 122 -7 -41 69 7 -50
-33 6 57 -48 52 -21 16 82
10 43 0 2 11 -10 -127 -33
-112 8 29 26 -94 -60 27 -14
-58 -64 -44 94 -60 -24 -2 75
8 24 -81 71 42 -61 121 95
37 48 -19 -97 55 -34 -81 2
41 -104 -31 -85 60 79 82 -5
-45 125 93 -66 -75 -31 25 -85
-7 56 127 39 54 47 -97 -19
-40 31 22 -13 10 115 127 -79
14 109 -36 -46 -54 111 -112 -57
79 127 97 3 -113 -127 -39 10
109 -112 -45 -5 -93 109 67 -66
127 -79 19 -121 -6 99 -114 85
71 63 -124 -2 -63 -95 -56 -25
-119 17 6 57 -113 53 -59 -68
11 -20 74 -108 110 -92 8 102
21 -22 11 80 -15 -44 -64 -82
-85 97 -33 125 0 -78 -24 -44
00000000: abf0 c10b d4f6 fe20 7f0c dc02 0edf 3f35
00000010: 170d e702 58f6 d005 1fe6 f9bf 340d 270c
00000020: e92b 41b7 dcb3 02eb fc3d 5243 1e04 ff10
00000030: cf17 7ec5 0249 690c fb71 f0d5 f443 ffcd
00000040: 0c21 54f7 9caf d1fd 11b1 0404 8146 02e5
00000050: 30ce 201f fd39 db26 4e01 e10c 06e2 a381
00000060: ab6b 7af9 d745 07ce df06 39d0 34eb 1052
00000070: 0a2b 0002 0bf6 81df 9008 1d1a a2c4 1bf2
00000080: c6c0 d45e c4e8 fe4b 0818 af47 2ac3 795f
00000090: 2530 ed9f 37de af02 2998 e1ab 3c4f 52fb
000000a0: d37d 5dbe b5e1 19ab f938 7f27 362f 9fed
000000b0: d81f 16f3 0a73 7fb1 0e6d dcd2 ca6f 90c7
000000c0: 4f7f 6103 8f81 d90a 6d90 d3fb a36d 43be
000000d0: 7fb1 1387 fa63 8e55 473f 84fe c1a1 c8e7
000000e0: 8911 0639 8f35 c5bc 0bec 4a94 6ea4 0866
000000f0: 15ea 0b50 f1d4 c0ae ab61 df7d 00b2 e8d4
